Weights.npz (npz, 18890 bytes, 2 tensors)

W f8 [2304]
0	0x3fb4f751ad246e27	0.08189878918749881
1	0xbfb95878cfdbdae4	-0.09900622439077328
2	0xbfd5ea640fc58565	-0.34243108310882625
3	0x3fd0be2f634804d1	0.2616079778236556
4	0xbff0ff48a16939d2	-1.062325125228757
5	0x3fdb205ce726eb60	0.42385027478638015
6	0xbfe6f2a593fdd828	-0.7171199694119013
7	0xbff5075b1605c404	-1.3142958507780813
8	0xbff293d71665e7fa	-1.1610937952923437
9	0x3ff4c47aeb0d413d	1.297968786402705
10	0xbf8b7e881024c89b	-0.013424933426538657
11	0xbfa944e3ae9f0861	-0.04935370928389272
12	0x3fe05dac288674c1	0.5114346305378136
13	0x3ff6ad2a038fc909	1.4172763957145114
14	0xbfd6dc95ffa3a5d8	-0.35721349682589
15	0xbff4a5cd8c5f2414	-1.2904792292849878
16	0xbfb3bedc23abf2f6	-0.07713104124918488
17	0x3fdce6f7950af00a	0.45159711413339265
18	0xbfd5cf6470c2240f	-0.3407832242160688
19	0x3ff73ff28f9c8031	1.4531121835534686
20	0xbf904af2ad9bacae	-0.01591090378398679
21	0xbfd556bf05e84c82	-0.3334195668878196
22	0xbfb1c35f784ad0df	-0.06938740431616307
23	0x400297590cfd4502	2.323900319556402
24	0x3fed092c3fba388e	0.9073697323490408
25	0xbfbe3effae7417ab	-0.11814878472441019
26	0xbfe5b6a4433ca03a	-0.6785451234072817
27	0x3ff2cb09190fef55	1.1745692233079883
28	0xbfd901e772ca4cdc	-0.3907412167547599
29	0x4001b88f6fc90a9e	2.2151173337200154
30	0x3f800ef9f08ed057	0.007841065076583371
31	0xbfe7bc4b927ecbaf	-0.7417352544056167
32	0xbfc0df23ecc83acd	-0.13180970250728877
33	0xbfde71956b043d8a	-0.47568259669147805
34	0x3fd6ce9801858289	0.3563594832285522
35	0x3fdf5abd6b74aac3	0.4899133252498979
36	0xbfe0dcd0ece22c58	-0.5269550921087882
37	0x3f974fb8769b66f0	0.022765047301482377
38	0x3ff6a16fb5e8a1be	1.4144131761369034
39	0xbfbf55e87cd72a8d	-0.12240460441459274
40	0xbffbbd1a36dca2a2	-1.7336675780335686
41	0xbfc0fa13cc652c49	-0.13263175468668667
42	0x3fc8e0bfe18d04bc	0.194358811504605
43	0x3ff5f9cd70307583	1.3734869367975484
44	0xbfe3afdf7edf0c93	-0.615218875689964
45	0xc0004215226d2f74	-2.0322668733187417
46	0x3ff9d38ad7e4f024	1.6141460831995653
47	0xbfe17989d32130d7	-0.546086227762795
48	0xbfe701cef5eec6a2	-0.7189707568524748
49	0x3ff1f33f396c5b14	1.1218864672752646
50	0x3fb0e01f91cabf47	0.06591985043882885
51	0x3ff1a809d53774a6	1.1035250023626673
52	0x3fe4cebb42c3d4de	0.6502357772830256
53	0xc00067489552bde2	-2.0504314103961727
54	0x3ff0e81df5e6c5b0	1.0566691976094766
55	0xbfe1a2be971c4eda	-0.551116271150444
56	0xbfc5ed194c13a84c	-0.17129818167387822
57	0x3fde3f9aa952dfa3	0.4726320889999391
58	0x3fe1c13a9f861d60	0.5548375240040677
59	0xbfe39f5918c7a079	-0.6132016643505401
60	0xbff136777d56d87a	-1.0757975479187096
61	0x3fe005babfa650ba	0.5006994002492526
62	0x3ffb399131bbeb9c	1.7015544836747045
63	0xbfd8abca8e640234	-0.3854853048833633
64	0xbfe8716bec32bda7	-0.7638454068418711
65	0x3ffd162478e3c398	1.8179058763746294
66	0x3fd25d81c247b53e	0.2869572064654057
67	0x3fced3a88da75a4b	0.24083430210767384
68	0xbfecbec4e93a2307	-0.8982872538773287
69	0xbfb202a508c8cfc0	-0.0703528543897951
70	0x3fb4370d9b7609da	0.07896504445492472
71	0xbfea8e9dc886250e	-0.8299092213138992
72	0x3fd82f109b32af15	0.3778726115804017
73	0xbfc0613f9cee92b2	-0.12796778834048933
74	0x3fe4d2e830b40983	0.650745482562613
75	0xbfeaa07b9bbaf35a	-0.8320901910407017
76	0xbff7a8666a7993fa	-1.4786132964302383
77	0x3fe64dac4fb4684e	0.6969815785153146
78	0x3fc3bd7257da9ac8	0.15421895303480526
79	0xbff9ac6a486d3e6f	-1.6045935467881483
80	0xbfd84ee1b0a181c5	-0.3798145508681297
81	0x3fd6e9c010766098	0.3580169831052529
82	0xbfeff1bc9fc981f4	-0.9982588883249819
83	0xbfe51911e615590f	-0.6593102926079001
84	0x3fdc3cc62cd94f55	0.44120935802242417
85	0xbfdf9838ccb28e69	-0.4936658858298189
86	0x3fdeb9e43f215ebd	0.48009592213700697
87	0x3ff98c13958b5339	1.596698364407713
88	0xbfc3895dd4322578	-0.15262959347846183
89	0x3ffa9c2049d87c46	1.6631167301745946
90	0xbfd0200e8115035e	-0.25195658307716495
91	0xc00545ce7de8cf84	-2.6590852581666145
92	0x3fd2bba9ae8c3ec9	0.2927040295189554
93	0xbff33f2e839e3176	-1.202925218708598
94	0xbfd82093ce2088b1	-0.3769883645019361
95	0xbfe2cbc666977e04	-0.5873748782868806
96	0xbfbff080bed68e72	-0.12476353320249148
97	0x3fe52b610f81ba3b	0.6615453055254145
98	0xbfc97f34fdc9f1d6	-0.19919454948457255
99	0xbfc16be19ea5489b	-0.13610477682465646
100	0xbfed95c7aadc44ec	-0.9245336854093273
101	0x3fa9df53aae3c8ed	0.050531973467416204
102	0x3fb933f8d9952530	0.0984492808539883
103	0x40046a2f03deb274	2.551847486718822
104	0xbff14e44ba98895c	-1.0816085137272102
105	0xbffd3b3046935658	-1.826950336156548
106	0xbffa0c8f122ee31c	-1.6280661306647692
107	0x3fe04ffc95841f05	0.5097639961468025
108	0x3fe65822c79669f9	0.6982587717241692
109	0xbff03829028e7035	-1.0137109851703034
110	0xbfe351b336dc9506	-0.6037231513516026
111	0x3ff05d1befe6987b	1.0227317210315323
112	0x3ff1866018202f9b	1.0953064863597095
113	0xbfb4c08bc5c0d2bd	-0.08106301858863225
114	0xbff95c622d970e26	-1.5850545674192147
115	0xbfe008c7a14d66f5	-0.5010717535435264
116	0x3fe6b4ee084365cd	0.709586158885196
117	0xbfe21e07ccb0312f	-0.5661658284966843
118	0x3fd05e2cef4f1b5f	0.2557480179788651
119	0xbfcc7e085c216003	-0.2225962114196137
120	0x3fd5a4ef0ce40ed4	0.33819175967094606
121	0xbfcf0e7c2773bfa3	-0.24262954641698994
122	0xbff775f8d5a41a1c	-1.4663017602303006
123	0x3fe2813680f89a68	0.578273059746448
124	0xbfd4fd7144bf7fdc	-0.3279688998572945
125	0x3ff1ebaeb994c307	1.1200396775495294
126	0x3fda6f6839b5e225	0.4130497516230512
127	0xc0074fef51e573a9	-2.9140306852481968
128	0x3ff2dd1b85933617	1.1789813249373589
129	0x3ff24f3345a9b463	1.1443360062796948
130	0xbfd98bc2490a413e	-0.3991552079469506
131	0x3ff6de07ad96ca35	1.429206541139718
132	0xbfe2b29f8693f37b	-0.5843045834040902
133	0xbfd1d90889bba92c	-0.27887166452878165
134	0xbfe738665c005131	-0.725634746255798
135	0x3fe94397298c1b43	0.7895007907362487
136	0x3fed14f2f8f73218	0.9088072645768674
137	0xbfd3f6f23e71ea9c	-0.3119474038900678
138	0x3fdb9265cbe86f3d	0.4308104029930638
139	0x3fdd830f56ccd145	0.4611242625862995
140	0x3fe2d8ab58cd04c4	0.5889488920585326
141	0x3fe65930c85104cb	0.6983875191146124
142	0xbff2f5c5789b0dc2	-1.1850027762564967
143	0xbfe1b7a9f5188970	-0.5536699091938271
144	0xbfd32336a0ddf215	-0.29902425489106693
145	0xbfe815eda7f0a5b6	-0.7526767997816737
146	0xbfcd08ddf23d5f45	-0.22683309867965754
147	0xbfc0b003e2e8b554	-0.13037155704061354
148	0x3ff620aa4b236446	1.3829749045455784
149	0xbfce1e8a416346c4	-0.23530700867427445
150	0xbff05e26f28e7750	-1.0229863619674298
151	0x40057e5ed6f8738a	2.6867043299266173
152	0x3feccd43fcc11349	0.9000568329434852
153	0xbfe3b3709cdd7aa2	-0.6156542838833341
154	0x3fd642905edbc649	0.3478127409317478
155	0xbfca6141a34de516	-0.20609302972642557
156	0xbfe1fe80a8baf899	-0.5623172088160288
157	0x3fd4bd5f71ff66a7	0.32405840046485895
158	0xbff7d0366c32d33e	-1.4883331514840417
159	0x3ff8b8b1adfce947	1.5450913235095685
160	0xbfee46a1ee6cc4ab	-0.9461221367584093
161	0x3f96f85f19124b42	0.022431836991539507
162	0x3fd00da950bc6639	0.2508338249623168
163	0xbfcd9b6ddfa22e28	-0.23130582255940735
164	0xbfcde8e50bd8145f	-0.23366988256762775
165	0x3fdede8f15864bb1	0.4823339185906504
166	0xbff058726605d318	-1.0215934739364396
167	0x3fec8a6b9ab99be0	0.8918970128987631
168	0x3fc293db52286020	0.14513722907645477
169	0xbfdd32ebc3842eb2	-0.4562329682673677
170	0x3fd26c1918d40954	0.2878477804626034
171	0x3fe99532b210a705	0.799462650092409
172	0xbfcfe1e1107f9520	-0.24908078485092577
173	0x3fd32c07e47e15d8	0.29956242860529647
174	0x3fe06d48590624a6	0.5133401621580063
175	0xbfe0854518cbbd9d	-0.5162682995123081
176	0x3fdb0b5ef4213f5b	0.4225690254288474
177	0xbfc59187a9f936a4	-0.16850372123228852
178	0xbfec54b634c0a2da	-0.8853407888719531
179	0x3fdc46dc14e26e7c	0.4418249324751071
180	0x3feed30394dccdfa	0.9632585437270216
181	0xbfc12f3d4ee8a3d0	-0.1342541346832875
182	0x3fc02ad49a459ff2	0.12630708248911976
183	0xbfd13494feabd3cd	-0.26883435125574523
184	0xbfdc4cd0f1742820	-0.44218848781076936
185	0xbfe003b5f7f5ac01	-0.5004529803239849
186	0xbff85a38d1395427	-1.5220268414316338
187	0x3ffa3529f720449f	1.6379794743882383
188	0x3fec2f398cc0dc09	0.8807647465790761
189	0x3fd383aad5a5a56f	0.3049113356015231
190	0x3fe48f2272de1f10	0.6424724811085714
191	0x3fccf400c1ca90f1	0.22619637930359418
192	0xbfe5d41301577018	-0.6821379686548452
193	0xbfe264334841f33d	-0.5747314845353696
194	0xbfdfe49814fe6b14	-0.4983272748010432
195	0xbfe7fc205894ef59	-0.74952714253548
196	0xbfe9455ada2f9eea	-0.7897161733098674
197	0x3ff6f6a2f347f223	1.4352139952817502
198	0xbfb70f9c4ac5025d	-0.09008194756916894
199	0x3ff23b8188a6c347	1.1395278299280152
200	0xbf60a7fd1532c972	-0.0020332282088812376
201	0x3fe82ba5012a3f45	0.7553277037386371
202	0x3ff391a00ed04a39	1.2230530337007066
203	0xbfd715e66765da17	-0.36071167085120365
204	0x3ffe0e4683a2220c	1.8784852163245231
205	0xbff0a332d1da9093	-1.0398433873570283
206	0xbfd5a4a871410565	-0.3381749254222853
207	0x3ff37264d8ac523f	1.2154282058519497
208	0x3fbb2f40f2716923	0.10618978423136531
209	0x3fe804d09355cdf0	0.7505877378120527
210	0xbff7e519d1a7ddec	-1.4934328260113672
211	0x3fbe65fd529185b1	0.11874373689490515
212	0x3ff041fd81934db5	1.016110902933048
213	0x3ff2aec96e7add49	1.1676725688574427
214	0xbff2527869196a92	-1.1451343636933058
215	0xbff120e428d2ff02	-1.0705300898261503
216	0x3fe743b4922b456e	0.7270148138870078
217	0x3fdd46cf162fc9f5	0.45744683424632565
218	0xbfb02475d5802759	-0.06305633985917093
219	0x3fd556c96d60fdfb	0.3334220474389153
220	0xbfe93e215001011c	-0.7888342440201401
221	0xbfcc69bd00bd311c	-0.22197687660298804
222	0x400325f16cb7d710	2.393526887283663
223	0xbfe1bdc3265fef83	-0.5544143437868886
224	0x3fd7badf55d87ce4	0.3707807863556367
225	0x3fc2df1a1025dd6b	0.1474335268828598
226	0xbfb758aeef48e394	-0.09119695035850689
227	0x3faa630e77f62363	0.05153699125646118
228	0xbfe295d40bc77159	-0.5807895879802728
229	0xbfe0b7670898dabd	-0.5223879974281186
230	0xbf9b03ce27f03819	-0.02638170355572109
231	0xbfdf0bfa29bc5d28	-0.4851060302330148
232	0xbfca2bec5e6b57c4	-0.20446543321912547
233	0xbfc318171619ab33	-0.14917267397989917
234	0xbff81b1358194307	-1.506610244880166
235	0xbfcaed013bcd97bc	-0.21035781307290147
236	0xbfe4f205a4e709f1	-0.6545437069656243
237	0x3fa27c87d924b28f	0.036106343514210264
238	0x3ff6e15c68ce38b9	1.4300197690932193
239	0x3fd24e7e386b45b8	0.28604083547278547
240	0x3fd11f5062432538	0.2675362548439639
241	0xbfe07dc9a56cd7d6	-0.5153549414596863
242	0x3ff4dc7e7a6b27a1	1.3038315565085912
243	0xbfadd4038244a714	-0.05825816121280361
244	0x3feeddac090864d3	0.9645595718785905
245	0xbfecdaf4818683c9	-0.9017279176515497
246	0xbfec5817943a96b3	-0.8857534308524094
247	0xbff21a60337d8d6b	-1.1314394008012083
248	0x3fe46c58de7b2b12	0.6382259698233119
249	0x3feebed9483122b3	0.960796967506289
250	0xbff13753b0b8dbbb	-1.0760075476843969
251	0xbfd9bc6fbafc21ec	-0.40212624798053187
252	0xbfd5f95cf874ce7b	-0.34334491980846565
253	0xbfe0a92c0d810e3e	-0.5206508888008512
254	0x3fd4281d7bb33d96	0.314948435593544
255	0xbfe461ffb21a25ba	-0.6369627455289255

b f8 []
0	0xc000e9221770497c	-2.1138345557348526
